…
odel_doa='pretrained_CRNN8_logmelgccintensity', model_pool_size=(2, 2), model_pool_type='avg', model_sed='CRNN9_logmelgccintensity', name='BS32_5s', nfft=1024, pretrained_epoch=40, reduce_lr=True, resume_epoch=-1, seed=30250, task_type='sed_only', weight_decay=0, workspace='/dcase2020task3/surrey20/')
main.py[line:691] INFO 
===> Building model
utilities.py[line:159] INFO 
Utilize GPUs for computation
utilities.py[line:160] INFO 
Number of GPU available: 1
main.py[line:710] INFO 
Model architectures:
DataParallel(
  (module): CRNN9_logmelgccintensity(
    (conv_block1): ConvBlock(
      (conv1): Conv2d(17, 128, kernel_size=(3, 3), stride=(1, 1), padding=(1, 1), bias=False)
      (conv2): Conv2d(128, 128, kernel_size=(3, 3), stride=(1, 1), padding=(1, 1), bias=False)
      (bn1): BatchNorm2d(128, eps=1e-05, momentum=0.1, affine=True, track_running_stats=True)
      (bn2): BatchNorm2d(128, eps=1e-05, momentum=0.1, affine=True, track_running_stats=True)
    )
    (conv_block2): ConvBlock(
      (conv1): Conv2d(128, 256, kernel_size=(3, 3), stride=(1, 1), padding=(1, 1), bias=False)
      (conv2): Conv2d(256, 256, kernel_size=(3, 3), stride=(1, 1), padding=(1, 1), bias=False)
      (bn1): BatchNorm2d(256, eps=1e-05, momentum=0.1, affine=True, track_running_stats=True)
      (bn2): BatchNorm2d(256, eps=1e-05, momentum=0.1, affine=True, track_running_stats=True)
    )
    (conv_block3): ConvBlock(
      (conv1): Conv2d(256, 512, kernel_size=(3, 3), stride=(1, 1), padding=(1, 1), bias=False)
      (conv2): Conv2d(512, 512, kernel_size=(3, 3), stride=(1, 1), padding=(1, 1), bias=False)
      (bn1): BatchNorm2d(512, eps=1e-05, momentum=0.1, affine=True, track_running_stats=True)
      (bn2): BatchNorm2d(512, eps=1e-05, momentum=0.1, affine=True, track_running_stats=True)
    )
    (gru): GRU(512, 256, num_layers=2, batch_first=True, dropout=0.3, bidirectional=True)
    (event_fc): Linear(in_features=512, out_features=14, bias=True)
    (azimuth_fc): Linear(in_features=512, out_features=14, bias=True)
    (elevation_fc): Linear(in_features=512, out_features=14, bias=True)
  )
)

main.py[line:712] INFO 
Parameters and size:
main.py[line:714] INFO module.conv_block1.conv1.weight: [128, 17, 3, 3]
main.py[line:714] INFO module.conv_block1.conv2.weight: [128, 128, 3, 3]
main.py[line:714] INFO module.conv_block1.bn1.weight: [128]
main.py[line:714] INFO module.conv_block1.bn1.bias: [128]
main.py[line:714] INFO module.conv_block1.bn2.weight: [128]
…
